saved_data/actor_solved.pth (torch_old, 169394 bytes, 6 tensors)

fc1.weight f4 [256, 33]
000000 22 71 c0 3d fd e1 1d 3e 47 e2 de 3d b1 27 90 bd
       0.09396578 0.15418239 0.10883003 -0.070388205
000010 10 df 95 bd af 7b aa bd 09 19 9f 3d 98 ce 5f bc
       -0.073179364 -0.08324372 0.07768447 -0.013660096
000020 c8 0c 23 bd 9f a3 a4 bd 40 05 28 bd ba 2d 49 bd
       -0.03980711 -0.08039021 -0.04102063 -0.049115874
000030 1b 11 22 3d de 20 e8 3d be 08 40 bd ac 98 26 3b
       0.039567094 0.11334394 -0.046883337 0.002542059
000040 a7 c1 b2 3d 86 ed 17 bd 17 5c cd 3d 65 26 3f bd
       0.087283425 -0.037091754 0.1002733 -0.046667475
000050 5a b4 b8 bb 66 3b 75 bc a7 72 a7 3c 10 69 55 bc
       -0.005636734 -0.014967775 0.020440413 -0.013025537
000060 82 96 1d 3c 0d e1 da 3c fb 68 68 bc dc b3 98 bd
       0.009618403 0.02671864 -0.014185186 -0.074561805
000070 46 4a 5f bd d2 df 3d 3d be 3d a9 3d 2c 23 ac bc
       -0.054514192 0.04635603 0.082637295 -0.021012865
000080 1f cb 28 3f 22 40 04 be c1 35 63 3d 15 94 bc 3c
       0.6593494 -0.1291509 0.055471186 0.02301983
000090 e0 e2 dc 3c 36 20 4e bd f9 1b 7f bd 28 38 ae 3c
       0.026963651 -0.050323687 -0.062282536 0.021267012
0000a0 70 29 8b 3d 0f a6 06 be 0d 71 dc bd 57 03 2c bd
       0.06795013 -0.13149284 -0.1076375 -0.041995373
0000b0 ab 8f 99 3d 9d 9e eb 3c 1c d4 79 bd 4c 3b bf 3d
       0.074981056 0.028762156 -0.0609933 0.09337482
0000c0 27 3c 8f bc 43 49 12 bd d6 14 42 3c ed 39 22 bb
       -0.017484738 -0.0357144 0.011845788 -0.0024753765
0000d0 07 f4 cd 3c 59 07 bb bd 9d d0 48 3b 31 6d 26 bd
       0.025140775 -0.09132261 0.0030641921 -0.040631477
0000e0 c8 a8 5a bd 96 c7 a4 3d ca b8 fe bc 76 ea 8d 3c
       -0.05338362 0.080458805 -0.031093974 0.017323714
0000f0 32 ad 07 be 44 3d bc bd 42 86 1a 3d 9c 14 1b 3e
       -0.13249663 -0.09191373 0.037725694 0.1514458
000100 b8 0c c0 bc 9b 77 b7 3d b8 19 26 be ce f5 13 bc
       -0.023443565 0.0895836 -0.16220748 -0.009030772
000110 bc 83 20 3d 53 e1 f8 3c 18 9c 8f bc 5a d9 40 bd
       0.03918813 0.03038088 -0.017530486 -0.047082283
000120 dd 14 85 bc d1 8c b5 3d 97 f9 52 bd ff 91 ec bc
       -0.0162453 0.08864749 -0.05150756 -0.02887821
000130 27 3f 42 3c 36 3d a7 bd a8 49 5a bd cd 05 79 3e
       0.011855877 -0.08165972 -0.0532929 0.24318619
000140 cf 68 a8 3b 12 81 41 3d c2 fb 83 3c 16 9d af 3c
       0.0051394473 0.04724223 0.016111258 0.02143721
000150 7b fa 5b 3d ee 2f 8a bd b7 e4 43 bd b2 10 02 3e
       0.053705674 -0.06747423 -0.04782554 0.12701681
000160 9d 34 06 3e 2e 45 b4 3d e9 4e 12 3d 0e 8b 25 bd
       0.13106008 0.088022575 0.035719786 -0.040415816
000170 36 63 82 3b 3f 69 57 bd 88 09 cf bd b8 de 41 bc
       0.003979112 -0.052590605 -0.1010924 -0.011832885
000180 ac 6d c6 3b ae 3d 1e bd 38 5a 8d 3d 37 c6 32 bd
       0.0060555544 -0.03863304 0.069019735 -0.043646064
000190 b6 3a 3f bd ec b3 21 be 38 e5 93 3c ca c0 dc 3d
       -0.04668685 -0.15791291 0.018053636 0.10778959
0001a0 8e ad e5 bc fe 9b c4 bd d5 cb b0 3a e7 db 8a 3c
       -0.028036859 -0.09600066 0.0013488481 0.01695056
0001b0 a8 f3 34 3d 28 3c 41 3d 4c 5e c6 3c e2 a6 9f bd
       0.04417768 0.04717651 0.024214886 -0.07795502
0001c0 78 bc 2a 39 bd 56 29 3c d5 24 a4 3d da aa 23 3c
       0.00016282673 0.010335621 0.08014838 0.009989465
0001d0 cd d5 f2 3b 3b 42 37 3d a7 76 bd 3c cb 6c e9 bd
       0.007410741 0.044740897 0.023127867 -0.11397704
0001e0 16 7f 9a bd 03 10 65 3d 4e f3 e0 3d 04 fd 0b bd
       -0.07543771 0.055923473 0.10983907 -0.03417684
0001f0 9e 20 1e bd 0b 6c 5e bc 58 83 cb 3c 6f 61 10 3e
       -0.038605325 -0.013575564 0.024842903 0.14099668
000200 80 0a f8 3b 1e be 57 bd d0 33 d1 3c 01 ee 03 bf
       0.007569611 -0.052671544 0.025537401 -0.5153504
000210 67 99 b5 bd 1c 86 1b 3e 63 f6 f5 3d 6a d3 c8 3b
       -0.0886715 0.15187877 0.12009885 0.006128718
000220 1a 33 11 3d 15 40 68 3c 54 75 25 3c 30 1c 90 ba
       0.035449125 0.014175435 0.010098774 -0.0010994729
000230 d6 40 23 be 8e d5 9b bc 2d bf 28 3d 31 54 4a 3c
       -0.15942702 -0.01902273 0.041197944 0.012349174
000240 04 36 17 3b 58 76 ef 3c 39 1d 4c 3b a8 1b 8f bd
       0.0023072967 0.029231235 0.0031145348 -0.06987697
000250 8d a1 9a 3c fa c0 7a 3d 41 61 16 3d 1d 3a 8a 3d
       0.018875862 0.061219193 0.036713842 0.067493655
000260 fc 43 18 3d 23 77 76 3d 09 fc f0 bc 78 fd 0d be
       0.03717421 0.06017221 -0.029417055 -0.13866222
000270 d0 07 ea bc 15 96 25 bd 9f 79 a7 3c 09 c3 a7 3c
       -0.028568178 -0.040426333 0.020443736 0.020478742
000280 02 3e 54 3e c6 c3 2e 3d de 5b 5c bc 70 e1 e1 bb
       0.20726779 0.042667173 -0.013449637 -0.0068933293
000290 6d 71 19 3e a4 21 19 3e a1 5b 5d 3e 51 80 01 bd
       0.14984675 0.14954239 0.21616985 -0.031616513
0002a0 06 e9 0f be 0e 9d 79 bc 5b f3 94 3c 6f 43 b9 3c
       -0.14053735 -0.015235199 0.018182447 0.022615163
0002b0 a2 f8 60 3d 48 c5 21 3d 69 78 90 bd f3 e4 00 3d
       0.054924615 0.039494783 -0.070542164 0.031468343
0002c0 88 be 10 3b 45 99 06 bd 77 d9 93 bc da 8a 9d 3c
       0.0022086222 -0.032861013 -0.018048031 0.019231249
0002d0 03 79 85 3c 5e f3 7d 3d 2d 4a f0 3b 45 00 68 bd
       0.016293054 0.06199967 0.007333061 -0.056640882
0002e0 92 82 a1 bb d0 2c 8e 3d 53 ca 88 bd a6 62 a8 bc
       -0.0049288953 0.06942141 -0.06679215 -0.020554852
0002f0 4c 67 ba 3d 13 45 fa 3c 90 58 17 bc 05 05 73 3e
       0.091017336 0.030550515 -0.009237424 0.23732384
000300 8d 68 1a 3e 56 50 e1 bc 00 93 e1 3a 4a 20 b9 bd
       0.15078945 -0.027504127 0.0017209947 -0.09039362
000310 50 10 42 3d 6d 1f 2d bf c0 bb 98 be 9e 3e 24 3d
       0.047378838 -0.67626077 -0.29830742 0.04009878
000320 6d 59 2e bc b2 28 2b 3b 5c 82 b0 bd 28 67 9b 3d
       -0.010641438 0.0026116786 -0.08618614 0.07588035
000330 19 07 88 bc 72 b5 26 bd 2e 49 8e 3c 11 7a 21 3d
       -0.016604947 -0.040700383 0.01736888 0.039423052
000340 78 88 ad bd f1 65 e4 bc ab 88 9f bc 49 5b 86 3d
       -0.08473295 -0.02788064 -0.019474348 0.0656038
000350 af ed 93 bc d7 3c 6b 3c 01 d1 0d bb 6f cc 8d 3c
       -0.018057672 0.014357767 -0.0021639469 0.017309396
000360 dc b1 fc bd b4 b3 92 3c 95 27 46 3d 15 52 93 bc
       -0.123386115 0.017907955 0.048377592 -0.017983476
000370 0f 61 b9 bd e2 af c4 3d 67 c6 5c 3c 31 20 8a bc
       -0.090517156 0.096038595 0.013475037 -0.016861053
000380 11 73 a7 3d 33 32 2a 3e a1 d3 6c 3e 36 71 6f 3d
       0.08176244 0.16620712 0.23127605 0.058457576
000390 22 23 ab bd a8 f0 bb 3c f2 14 19 bf e4 d9 06 3e
       -0.083563104 0.022941902 -0.59797585 0.13169056
0003a0 0b d4 d4 ba 02 2e 15 bd e3 ac d4 bc d7 fc 30 bd
       -0.001623751 -0.03642083 -0.025961345 -0.043209877
0003b0 8a 65 d4 bd ea c3 40 3e 82 0e 05 bb cf d3 ed 3d
       -0.103709295 0.18824735 -0.0020302837 0.11612665
0003c0 f4 de 5c bc 65 03 28 bc d5 f1 81 3d 04 d5 fa bc
       -0.013480891 -0.010254716 0.06344954 -0.030619152
0003d0 b7 90 7d 3c 4c 5f 32 3a dc ec 0f 39 58 fe 9d 3d
       0.015476397 0.00068043615 0.0001372578 0.07714528
0003e0 91 4d 0a 3c f8 56 9c 3c 4c 8f 4b 3d a8 5a db ba
       0.008441345 0.019084439 0.049697205 -0.0016735392
0003f0 db 83 26 bd bc df 92 3d 32 11 f2 bc df 88 1e 3d
       -0.04065309 0.0717158 -0.029549215 0.03870475

fc1.bias f4 [256]
000000 d8 76 74 3d 48 f6 f8 3a 58 56 16 3e 8e 0a 44 bd
       0.05968365 0.0018994296 0.14681375 -0.04786163
000010 67 63 98 3c 39 f4 fb bd 2b cc 95 be ef 00 31 bc
       0.018602086 -0.12302441 -0.2925733 -0.010803445
000020 df 71 b1 bd 05 20 91 3e 99 3b 44 be 0f 9b e4 3d
       -0.08664297 0.2834474 -0.1916336 0.111623876
000030 81 35 45 be 2c 7f 81 3e a8 9d 4d 3e 2d 16 36 3e
       -0.19258691 0.25292337 0.20079672 0.17781897
000040 82 66 d7 3c 51 dc be 3d 8d 64 0f bd a2 83 32 be
       0.026293997 0.09319366 -0.035008002 -0.17433026
000050 47 79 f5 3d 43 e0 8f bd b1 4a 13 3e 88 55 1e bd
       0.119860224 -0.070251964 0.14383961 -0.038655788
000060 a3 39 b2 bd af 32 ac bd ca 20 03 3e 8e 46 6b 3d
       -0.087023996 -0.08408105 0.12805477 0.057440333
000070 3c 24 1d 3c 80 ac 5c be 65 91 d7 bc 74 d9 48 bd
       0.0095911585 -0.21550179 -0.026314447 -0.049035504
000080 c4 87 b1 3d ae fe 98 be d7 f0 c2 bd 9f 41 01 3d
       0.08668473 -0.29881805 -0.09518593 0.03155672
000090 c4 94 2e bd 01 10 50 3b 5d 53 9a 3d d2 58 c4 bd
       -0.042622343 0.003174782 0.075354315 -0.09587254
0000a0 31 5a 6e bd b3 a1 c2 bc 07 60 73 bd d0 4f 15 3e
       -0.058191482 -0.023758745 -0.05941775 0.14581227
0000b0 bb ab 73 3d f3 b6 79 3c 36 7a f4 3c b1 93 8a bd
       0.059489947 0.015241372 0.029843431 -0.06766451
0000c0 50 34 6d 3e 8b 33 8d 3c 31 46 85 be bf aa e1 3d
       0.23164487 0.017236492 -0.26030114 0.11018895
0000d0 b2 36 64 bc f6 d3 9e bd 61 5d f2 bc 02 05 14 3d
       -0.013929056 -0.07755272 -0.029585542 0.03613759
0000e0 57 6b 25 3d 16 e9 94 3b 28 c1 4f be 04 de b6 3a
       0.04038557 0.0045443876 -0.20288527 0.0013951664
0000f0 09 89 ff bc 98 66 40 bd 60 70 b1 bc 15 bf 43 bd
       -0.031193273 -0.04697284 -0.02166003 -0.047789652
000100 21 2e 2b bd 44 d3 9c be db 02 ad bd 39 20 c8 bd
       -0.04179204 -0.30629933 -0.0844781 -0.09771771
000110 83 39 14 3e 68 46 26 bd fb e9 22 3e b9 13 51 be
       0.14475064 -0.04059449 0.15909569 -0.2041768
000120 0c b7 68 bd d5 32 b0 3d 51 f3 83 3d 01 f4 16 3e
       -0.056815192 0.086034454 0.06442893 0.14741518
000130 36 54 87 bd 33 74 fd bd 0a 07 aa bc 02 13 b6 3c
       -0.06607859 -0.12375679 -0.02075531 0.02222586
000140 d5 fd b2 3d 7a 9a 10 3e ce d2 43 be 79 71 b8 3d
       0.08739821 0.14121428 -0.19123384 0.09006018
000150 f2 ad 2e 3d d3 3e b4 3d 9f 3b 40 be 04 cc c8 bd
       0.042646356 0.08801045 -0.18772744 -0.09804538
000160 a1 31 07 3e d0 37 0a 3e d8 2f a2 bd d8 00 23 3e
       0.13202526 0.13497853 -0.07919282 0.1591829
000170 39 44 c7 3d ea 89 14 3e 5b a4 1d be 63 b0 e2 bd
       0.09729809 0.14505735 -0.15394728 -0.11068799
000180 c4 48 f3 bd 0a c0 89 be 70 30 c7 bd b9 79 fd 3d
       -0.11879113 -0.26904327 -0.097260356 0.123767324
000190 c3 53 12 3e 60 06 e7 3d 86 4a 9b 3d d4 7a 02 3e
       0.14289765 0.11280513 0.075825736 0.12742168
0001a0 da 0e 03 3e 4a 94 70 ba 4d ba fd bd 5f ee bd bc
       0.12798634 -0.000917737 -0.1238905 -0.023184953
0001b0 6f 86 1f bd 2c c6 8f 3c 13 b8 3b 3d d3 41 20 3d
       -0.038946565 0.01755055 0.045829844 0.039125275
0001c0 4e df d2 bd ee f0 01 be 35 7f d0 bb 38 93 57 be
       -0.10296498 -0.12689564 -0.0063628205 -0.21052253
0001d0 58 af d8 bd ce 28 c6 bd 6a 3d 46 3e e3 18 37 be
       -0.10580319 -0.096757516 0.19359365 -0.17880587
0001e0 cf e9 65 3e 70 9e 0b 3e 6a 6c 9b be 7b 93 27 3e
       0.22452472 0.13634658 -0.3035615 0.16364853
0001f0 09 13 27 3d 02 a2 54 3d ae d0 ac be d6 56 2d be
       0.040789638 0.051912315 -0.3375296 -0.16927657
000200 f9 ff 31 bd e7 1e 6d be ea d1 fa bd 68 64 01 bd
       -0.043457005 -0.2315632 -0.12247069 -0.031589895
000210 98 c4 eb 3d 16 6c 06 bd 2b 47 03 be a3 11 c5 bc
       0.11512107 -0.032817923 -0.12820117 -0.024056261
000220 5f 25 51 3d 01 06 33 bc d2 fa f0 bd 1c 76 ad bd
       0.05106103 -0.010926724 -0.1176659 -0.08469793
000230 be 8b e5 bb 52 a2 a8 3d 21 3e 56 3e ca 5b 22 3d
       -0.007005184 0.08234085 0.20922138 0.039638318
000240 e6 b9 4e be 8e 35 d2 bd a4 81 42 ba 6a 11 21 3d
       -0.20188102 -0.10264121 -0.00074198307 0.039323248
000250 cf 1b 52 3e cb a9 53 be 54 be 8b bd 3e a1 fe 3c
       0.2051842 -0.2067024 -0.068234116 0.031082746
000260 e3 65 87 3d 47 48 23 bc 04 ca be bd da c0 0f bd
       0.0661123 -0.009965963 -0.09315875 -0.035096027
000270 f7 66 43 be 92 92 c9 3d 2a a6 5e bd 55 95 d3 bd
       -0.19082247 0.09842409 -0.054357685 -0.10331217
000280 98 8e d5 3b 23 e1 c1 bd 26 c9 0a 3e 33 4a 9a 3d
       0.0065172426 -0.094667695 0.13553295 0.07533684
000290 4e 18 3e 3e e7 78 c2 bc 08 47 5e be 92 d1 b6 bd
       0.18563959 -0.023739291 -0.21706784 -0.08926691
0002a0 cc 7d 53 be a4 4c 30 be 77 6b 22 3e c8 ce 20 3c
       -0.20653456 -0.17216736 0.15861307 0.0098149255
0002b0 fe e5 9e 3d 34 d0 36 3e f0 ef 59 3d 4f 3c 53 3d
       0.07758711 0.1785286 0.053207338 0.051571187
0002c0 6b e0 8c be 6e 27 57 be 62 71 2a bd f1 4a 46 bd
       -0.27514967 -0.21011135 -0.041612037 -0.048411313
0002d0 f5 31 99 be 46 35 65 bd 5d 85 a7 bc bd 9d b4 be
       -0.29920927 -0.05595901 -0.020449335 -0.35276595
0002e0 11 2c e6 3c 2f b8 df bd d4 0b 3e bd 98 f5 2e be
       0.028097184 -0.10923802 -0.046398 -0.17085874
0002f0 93 26 56 bd 49 b1 d5 3a be cc 7b 3c 44 f7 aa bc
       -0.05228288 0.0016303445 0.015368639 -0.020869859
000300 50 6d 13 3e df 92 7c 3c 91 c5 b7 3d c6 cc 0c be
       0.14397168 0.015415876 0.0897323 -0.1374999
000310 54 ae ec 3d 85 04 29 3e aa 50 2a be 6e 6e 18 3e
       0.11556688 0.1650563 -0.16632333 0.14885876
000320 4e 88 14 3e 99 30 fd 3d 5f 45 2b 3d 71 14 ee 3d
       0.14505121 0.12362785 0.041814204 0.11624993
000330 36 46 62 bc b0 d6 0a bd c2 84 37 be a0 b1 20 be
       -0.013810685 -0.03389615 -0.17921737 -0.15692759
000340 df df 8b 3d 5c 42 1a 3d 36 1d 8d be 76 9e ed 3d
       0.068298094 0.03766094 -0.2756135 0.1160249
000350 cb 96 8b bd b8 3d 2c 3e 4d 80 87 be bf f2 76 bd
       -0.06815871 0.16820419 -0.26465073 -0.060290094
000360 ef 74 34 bd 89 9b 45 be 17 ab 11 be 07 c3 1f 3e
       -0.04405683 -0.19297613 -0.14225422 0.15601741
000370 32 f0 03 3d 9e 4d 1e bd 01 1c 56 be 05 34 cf be
       0.03221149 -0.03864824 -0.2090912 -0.40469375
000380 5e 09 b4 3d a0 3c 20 be 22 61 25 be 40 74 69 bb
       0.08790849 -0.15648127 -0.16150334 -0.003562227
000390 fe 3a 28 be d8 22 99 3d 14 11 10 3e d4 50 86 bd
       -0.16428754 0.07477349 0.14069015 -0.065583855
0003a0 e8 46 48 bc 95 bb 1a 3e d5 ee ad 3c f6 82 9b 3b
       -0.012223937 0.1511062 0.021232048 0.0047458364
0003b0 a3 14 33 3d 4f 77 c0 3d eb bb 48 be 9e 5b 24 3e
       0.043720853 0.09397756 -0.19602935 0.16050574
0003c0 c3 2e e8 bc 57 f9 4e 3d cf dc c9 bd 8b de 6f 3d
       -0.02834261 0.050530758 -0.09856569 0.058561843
0003d0 7f 3e c7 bc 16 e3 d5 bd d2 00 92 bd c2 19 5d 3d
       -0.024321793 -0.10443704 -0.07129063 0.053979643
0003e0 e7 1c 96 3c 39 45 b1 3d 67 90 31 3d 82 26 8c bd
       0.018324329 0.08655781 0.043350603 -0.06843282
0003f0 d7 de a4 3c 68 64 06 bc 23 f9 5c 3d 14 d5 15 be
       0.02012579 -0.00820265 0.053948533 -0.14632064

fc2.weight f4 [128, 256]
000000 ef 33 b8 3c 2f ab 4c 3e 00 5d 73 bd 85 8f d4 3d
       0.022485701 0.19987176 -0.059414864 0.10378937
000010 8a 1b 5e ba ea 95 32 bd 05 67 32 3e 1e a7 25 3d
       -0.00084727316 -0.0436 0.17422111 0.04044258
000020 a9 70 07 3d a8 af 36 3e f6 b3 89 3d 53 b7 2d 3b
       0.033066425 0.17840445 0.06723778 0.0026506975
000030 0a fe 1d 3e 6f 98 6e 3c c8 a4 53 bd 11 ad 84 3e
       0.1542894 0.01456271 -0.05167082 0.2591329
000040 7f b2 e8 3e 58 55 17 bd 3f ff a0 3d f9 83 b9 bb
       0.45448682 -0.036946625 0.07861184 -0.0056614843
000050 67 a5 c5 3a 62 3e f2 3d 05 af 27 3d fa 97 16 3e
       0.0015079201 0.11828305 0.040938396 0.14706412
000060 2d f3 c5 3d 2e 4f 3a be 9a 1a db 3d e2 e8 ac bd
       0.09665523 -0.18194267 0.10698433 -0.08442856
000070 d7 14 3a bd 65 93 a5 3e 9a 7a b0 bd f1 8a 68 3b
       -0.04543003 0.32339016 -0.086171344 0.0035483206
000080 c3 05 10 3d ed 4c fa 3d 05 b6 86 be a9 df d9 bd
       0.035161745 0.12221704 -0.26310745 -0.10638363
000090 8d 8e 68 3e 0c 9a 2c bc e4 dd be 3d 97 ef 49 bd
       0.22710629 -0.0105347745 0.09319666 -0.049300756
0000a0 52 0e 36 be ae bf 0d 3e 82 0b bc 3e 49 18 06 3e
       -0.177789 0.13842651 0.3672753 0.13095202
0000b0 4f a9 dd 3c a8 dc 0c bd 09 a5 99 3b 26 4c 9b 3d
       0.027058272 -0.03439012 0.004688863 0.075828835
0000c0 93 cf 23 bd 5e 03 7f 3d 81 cb a5 3d b7 42 a3 3c
       -0.03999288 0.06225907 0.08095456 0.019929273
0000d0 7f 57 1a 3d 3c 4b ff 3d c6 5e 05 be de 10 ae be
       0.0376811 0.12465522 -0.13024434 -0.33997244
0000e0 77 25 b2 3d ab 57 05 3d 94 25 0b 3d 0e 04 c6 bd
       0.08698552 0.03255431 0.033971384 -0.09668742
0000f0 5a 9d 58 be cd 5f 82 b9 9f 69 33 be 88 bf 4c 3d
       -0.21153775 -0.0002486691 -0.1752076 0.049987346
000100 cf 73 43 bd 3d e5 6f 3d 91 ea c1 3c a4 00 a1 3d
       -0.047717866 0.058568228 0.02367142 0.0786145
000110 0a 01 b8 3d 60 bc 8d bc 99 26 82 bd 9e 2b 10 3d
       0.08984573 -0.017301738 -0.06355018 0.035197847
000120 b2 23 31 3e 8a 5a a1 bd 30 be da 3d 32 31 a2 3c
       0.17298773 -0.07878597 0.10680807 0.019798849
000130 6a 45 1f 3e 9e 8a 16 3e 3b ce 72 3d 07 45 a9 bd
       0.15553823 0.14701316 0.059278708 -0.08265119
000140 fe 89 97 bc 77 bf ca bd e1 63 99 3a 42 63 a3 be
       -0.018498417 -0.098998 0.001170274 -0.31911665
000150 7b 55 3b 3b ac 23 39 be c2 56 7d 3d c1 06 49 3c
       0.0028584886 -0.18080014 0.061850317 0.012269677
000160 d0 ba 07 be 03 58 2c 3e 2b 12 61 3e 89 06 1b bd
       -0.13254857 0.16830449 0.21979587 -0.03784803
000170 e4 9b 4b 3e 37 c8 e6 bc 37 9a 8a 3e 49 42 2d 3e
       0.19883686 -0.028171642 0.27070782 0.16919817
000180 21 98 25 3e 0a 8a 1c bd ec 1e 1d 3e 09 7c 63 39
       0.16171314 -0.03821758 0.15343827 0.00021694614
000190 08 08 7e bd cf ef ae 3d 32 06 fe 3c 3b 74 0e be
       -0.062019378 0.085418336 0.031008814 -0.13911526
0001a0 58 32 69 bd 67 f9 62 bd c2 7d 08 be 36 c3 71 3d
       -0.056932777 -0.05541363 -0.13329223 0.05902406
0001b0 78 6b d0 3d 32 59 43 3c 42 66 ab bd 37 0e 58 3d
       0.10176748 0.011923121 -0.083691135 0.05274793
0001c0 c5 71 47 be ef 8a 8f 3c fa b1 c3 bd b3 dc d0 3d
       -0.19476993 0.017522303 -0.09555431 0.10198345
0001d0 9e 5f 02 be b1 07 bc 3c 29 24 a7 3d 84 01 69 3e
       -0.12731788 0.022952886 0.08161194 0.22754484
0001e0 67 53 e1 3d 7e 31 08 3e b4 4a 4b bd c5 a6 75 3d
       0.11002236 0.1330013 -0.04963179 0.059973497
0001f0 e4 9c 00 3d e2 74 11 bd 65 63 f6 3d 9a f8 12 3e
       0.031399623 -0.03551186 0.12030677 0.14352646
000200 25 c6 c8 3c 9e 82 87 3c ec 57 c2 3d a5 7a ac 3b
       0.024508545 0.016541775 0.09489426 0.005263644
000210 37 91 48 3e 79 31 35 3e 70 d5 65 bd 03 08 b7 bd
       0.19586645 0.17694654 -0.056111753 -0.08937075
000220 6d e5 1d 3e 9d 91 a7 bd d8 38 18 bd 0a 81 01 3e
       0.1541955 -0.081820704 -0.037163585 0.12646881
000230 19 09 c9 bc 61 5b 11 be ad 43 12 bd 94 0d dc bc
       -0.02454047 -0.14195015 -0.035709072 -0.026861943
000240 18 87 f3 3d 38 c3 17 3e a3 23 9d bd 45 72 91 3d
       0.118910015 0.14820564 -0.07672813 0.07101873
000250 93 01 2d 3e ff f9 83 3d 65 48 85 3c c0 4a 6c 3c
       0.16895132 0.06444167 0.016269872 0.014422119
000260 0d 1d b0 3a 3a 50 13 3e a4 31 02 3e b1 56 ec 3d
       0.0013436392 0.14386073 0.12714249 0.115399726
000270 58 b2 2e bd 2f 7c 96 bd ec 3b 7c bd ab 0f 12 be
       -0.04265055 -0.07347905 -0.061580583 -0.1426379
000280 07 19 a0 bc c3 dc a6 3d f1 23 47 3c b9 60 58 bd
       -0.019543184 0.08147576 0.012154565 -0.052826617
000290 22 66 96 3d 07 3c d7 bc e1 a5 be 3e 04 01 83 bd
       0.07343699 -0.02627374 0.3723593 -0.06396678
0002a0 82 41 c1 be f3 0f 9e bb 3a 84 91 3c cc ff ad 3d
       -0.3774529 -0.0048236786 0.017763246 0.08496055
0002b0 cd d4 c0 3c 30 2c 25 3b e0 e9 73 3d 0e fc 08 3e
       0.023538971 0.002520334 0.059549212 0.13377401
0002c0 68 9c 7e 3e b5 03 36 3d d5 6f 66 3e 59 08 09 bd
       0.24864352 0.04443713 0.22503598 -0.033455227
0002d0 a1 a8 96 be 65 2a 3f be 6b 73 46 bd 8d 5d b2 3e
       -0.2942553 -0.18668516 -0.048449915 0.34837
0002e0 06 2a 82 3b 93 0c cb 3c 4c eb 71 bc 32 a8 83 bd
       0.0039722947 0.02478627 -0.014765572 -0.06428565
0002f0 9e 13 26 3d 41 10 d1 be 18 1f e2 bd 54 2f 78 3e
       0.040546052 -0.40832713 -0.11041087 0.24236804
000300 db 6c a4 3e 31 69 a1 bc e6 f5 e5 bd b8 8d 6e 3d
       0.321143 -0.01970348 -0.11228542 0.058240622
000310 a7 d8 dc bc 1f 72 c4 3d 63 ac bb bc 31 85 1d 3d
       -0.026958777 0.09592079 -0.022909349 0.0384571
000320 de ab d4 3d 2c 3f c2 bc 0c 83 54 bd f4 f0 30 3e
       0.103843436 -0.023711763 -0.05188279 0.17279416
000330 e4 4e 4a 3e 40 c2 f2 3d 58 24 4f 3d bd 4f 3c 3a
       0.19756657 0.118534565 0.05057177 0.0007183513
000340 04 d6 d1 3d 5e ed 8a bb fa 4d df 3d 82 e8 9d bd
       0.10245898 -0.004239722 0.10903545 -0.07710363
000350 b2 df d3 3c e3 46 ab bd a8 47 14 3e c0 e8 30 3e
       0.025863502 -0.0836313 0.1448046 0.17276287
000360 1c 7e 06 3e 2f 12 cf bc a1 68 ef 3d 3a 79 c2 3d
       0.13134044 -0.025277225 0.11689878 0.094957784
000370 cf 3b 2b 3d f2 65 f7 3c 37 1a b8 bd ef dd f9 bd
       0.041805085 0.030199979 -0.08989375 -0.122005336
000380 1f 37 ec 3d 2c eb 4a bd 57 01 42 bd 91 86 c9 3c
       0.11533951 -0.049540684 -0.04736456 0.0246003
000390 dd 3b cc 3c b2 d9 93 bd 7b 2a 7a 3d 41 d2 af 3d
       0.024930889 -0.072192565 0.06107567 0.085850246
0003a0 bd 50 23 3c e8 9c c9 3d 71 1f 7c be 34 0d b7 bd
       0.00996798 0.098443806 -0.24621369 -0.08938065
0003b0 bd ba 46 3e 23 34 9d bc 39 5e 07 3d 03 6f 2e 3d
       0.19407173 -0.0191899 0.033048842 0.042586338
0003c0 1b 02 5d 3d 0b 4b 08 be 71 45 44 be 24 53 1f 3d
       0.053957086 -0.13309877 -0.19167115 0.03889765
0003d0 e5 f6 c6 be 07 06 54 3e f4 c0 02 bd ae 4b 1c be
       -0.3886024 0.20705424 -0.031922296 -0.15263245
0003e0 a9 40 81 3e 08 a8 fe bd 26 b7 1c 3c 75 ac 98 3d
       0.25244644 -0.12434393 0.00956515 0.074547686
0003f0 f0 29 1d 3e d4 36 53 bd 6a 0d e3 bd ce 84 58 bd
       0.15348029 -0.05156596 -0.11086543 -0.052861027

fc2.bias f4 [128]
000000 6f 8f 1d bd 1c 94 99 3c 4e 9d f9 3c a4 b1 9d bd
       -0.038466867 0.018747382 0.030470517 -0.07699898
000010 bb db a0 bd 58 a8 0b 3d 73 92 5c bd 59 c8 8b 3d
       -0.0785441 0.034096092 -0.053850602 0.06825323
000020 bc a1 82 bc f6 e1 3a bd a8 e4 44 3d e0 b7 4d bd
       -0.015946262 -0.04562565 0.048069626 -0.050224185
000030 a8 12 2b bd 33 62 14 3d 6f ac 43 bd 10 9c d4 bc
       -0.04176584 0.036226463 -0.047771867 -0.025953323
000040 be 20 ca bb 5b a7 2a 3d 5f 96 60 3c 20 4e c8 bd
       -0.006168454 0.04166351 0.013707726 -0.09780526
000050 d4 ba 84 3d a5 d4 94 bd 7f 61 0c be 5c c2 f5 3b
       0.06480947 -0.07267121 -0.13709067 0.007499976
000060 07 a5 a4 bd f1 c8 ab 3d 51 65 15 3d 08 18 16 3d
       -0.08039289 0.08387936 0.036473576 0.03664401
000070 f6 44 43 3d 16 c6 b5 ba 2d 03 d4 bd 58 fd 42 bd
       0.04767319 -0.0013868238 -0.10352168 -0.04760489
000080 1d 69 7b 3d 3b 29 6d bd 74 da c8 bd 6c ef 07 bd
       0.06137954 -0.05790065 -0.098072916 -0.033187315
000090 cd 74 97 3c cf f6 9f bb 59 a6 8f bd ff c4 72 3c
       0.018488312 -0.004881717 -0.0701415 0.014817475
0000a0 7f b1 9b 3c 72 a6 ad bc 9d a2 ea bd 34 d3 c3 bd
       0.019005535 -0.021197531 -0.11456797 -0.09561768
0000b0 bf 93 c7 3d 40 25 a7 bc a4 e1 1a be 55 e2 aa 3c
       0.09744977 -0.020403504 -0.15125138 0.020859877
0000c0 5b a3 bb 3a 4d 32 b7 3b 53 5f e4 bc 4f 53 e8 3c
       0.0014315651 0.005590713 -0.027877485 0.028360037
0000d0 03 40 53 bd e7 54 78 bd 71 79 1d bd aa f7 91 bd
       -0.05157472 -0.060627844 -0.038445894 -0.07127316
0000e0 f5 78 21 bd f8 8f 50 bd 76 52 08 bd 7e b0 99 bc
       -0.039421994 -0.05091855 -0.033281766 -0.018760916
0000f0 f8 88 64 bd 05 c2 9e 3c 3e 02 a7 3c b7 d7 d8 3c
       -0.055794686 0.019379625 0.020386811 0.026470048
000100 ed 78 15 3d 35 aa 2d 3d 0d 7c b1 3d f1 63 a9 bb
       0.036492277 0.04239865 0.08666239 -0.0051693846
000110 5f 5b e8 bb e2 ed a7 bd 87 81 be bd 9c e3 2e bc
       -0.0070909704 -0.081996694 -0.09302049 -0.0106743835
000120 aa ce b2 bb de f3 7a bc ab 1d 26 3d bd 6d aa bc
       -0.005456765 -0.0153169315 0.040555637 -0.02080428
000130 8e dd b6 bc 12 b3 20 ba 32 54 e4 bd 68 a2 f9 3c
       -0.022322442 -0.0006130199 -0.111488715 0.03047295
000140 7d 31 3d bd c4 a8 2e be da 43 b3 3d 25 85 20 3d
       -0.046189774 -0.17056566 0.08753176 0.039189477
000150 da 5d 54 bd 26 08 0f be b3 cc 17 3c 19 c7 17 bc
       -0.051847316 -0.13967952 0.009265113 -0.009263777
000160 e3 29 06 bd 9c d7 55 3c 66 ba 0a bd f2 3d 66 bd
       -0.03275479 0.013051894 -0.03386917 -0.05621142
000170 f6 d3 a7 bc f7 a0 15 be 30 c3 8f bd 79 68 fd bd
       -0.020486813 -0.14612184 -0.07019651 -0.12373442
000180 8c 00 bf bc f8 91 3a be 93 cf fa bc 10 16 58 bd
       -0.02331569 -0.18219745 -0.030616557 -0.052755415
000190 d5 55 b8 3c df ee 85 bd 72 49 12 be dd 05 5c 3d
       0.022501865 -0.06539702 -0.1428583 0.05371653
0001a0 b3 e3 31 3d 08 84 48 bd 58 ae c3 bc 53 24 e9 bb
       0.04343004 -0.04895404 -0.023886845 -0.007114926
0001b0 7d db 31 3d ad 4e b8 bc 8e 30 82 bd 21 06 88 3d
       0.04342221 -0.022498453 -0.06356917 0.06641794
0001c0 b9 21 5c 3b c4 4c 73 bd ea c8 bf 3d 84 b0 1e be
       0.0033589436 -0.05939938 0.09364493 -0.15497023
0001d0 63 72 b7 bc 42 ed f0 bc 49 d4 bf bd a8 c5 81 bc
       -0.022393411 -0.029410008 -0.09366662 -0.01584132
0001e0 d7 e2 1b bb d0 a5 bf bb b6 ae 15 bc 72 47 84 3d
       -0.002378633 -0.005848624 -0.009135893 0.064589396
0001f0 85 92 fd 3c 7c 73 cb bc cc dd 9e bd ef d5 96 3c
       0.030953655 -0.02483534 -0.07757148 0.018412558

fc3.weight f4 [4, 128]
000000 70 60 47 be 92 1c 1f bf 63 ce 66 be d7 e5 b9 be
       -0.19470382 -0.6215297 -0.22539668 -0.36308166
000010 64 2c 0f bf 1f 2e cf 3e 9d f7 67 bd 32 db 26 3d
       -0.5592711 0.40464875 -0.056632627 0.040736385
000020 a8 d2 85 3e 37 5b 20 3e f9 81 62 3e fb 7e 62 3d
       0.2613728 0.15659796 0.22119893 0.05529688
000030 2b 4b 15 bd 48 de d3 be 10 ec 6c 3d 4f 82 7d 3e
       -0.03644864 -0.41380525 0.057842314 0.2475674
000040 7b 80 44 be b8 e5 b3 3d 98 56 93 3e 4f b2 50 3e
       -0.19189636 0.0878405 0.28777003 0.2038052
000050 8d 45 fa 3e c4 90 0d 3f 4d 5f 60 3e 5e 3e 77 be
       0.48881188 0.5529902 0.21911354 -0.24144885
000060 ff 09 d4 3e f8 92 f1 be d9 9b ac bc fd 22 af be
       0.41413876 -0.4718244 -0.021070408 -0.3420638
000070 5d 97 c2 3e 9b 61 80 be 3d c7 95 be 9d e4 55 3d
       0.38006106 -0.25074467 -0.2925357 0.052219976
000080 29 0f 95 be 76 e0 db bd cb 1a 5c be 24 e4 0c 3f
       -0.2911313 -0.10736172 -0.21494596 0.55035615
000090 91 54 8d be 32 ab cd bd 63 bd aa 3d f0 34 d4 3c
       -0.27603582 -0.100424185 0.08336904 0.025904149
0000a0 a7 42 3e 3f 04 5a ac be 59 f2 cd 3e ea 9f 63 bf
       0.74320453 -0.33662426 0.4022396 -0.88915884
0000b0 52 69 ef 3b 06 08 8a 3e 3c d6 91 3d 47 02 de 3c
       0.0073062563 0.26959246 0.0712094 0.027100695
0000c0 4a 4d 99 3e b9 9c 23 be 98 c3 a2 be e7 b3 6e 3d
       0.2994178 -0.15977754 -0.3178985 0.058277037
0000d0 2b c2 bc bd f3 f0 9f be 3f e2 30 bf 1a af f8 bd
       -0.09216722 -0.31238517 -0.69095224 -0.12142773
0000e0 cb 69 ea 3e 0c ed 0a 3d fc 4c da be db 2f 55 3e
       0.4578384 0.03391747 -0.4263686 0.20819037
0000f0 40 d2 03 be 54 7a ba be 39 fd e1 ba bc 5e a9 bd
       -0.12873173 -0.36421454 -0.0017241604 -0.08270022
000100 1e ef 2e be cc e9 e1 3d ff 27 87 3e dc 22 01 bf
       -0.17083403 0.11030921 0.26397702 -0.50443816
000110 dd 3c de bd 45 89 83 be bc d6 a0 bd ac 3e 30 3f
       -0.108514525 -0.25690666 -0.07853457 0.6884563
000120 a6 7e a0 bd 67 bd c2 3e 50 56 a9 be 5b 55 9f 3e
       -0.07836656 0.38035128 -0.33073664 0.3111981
000130 5c 70 73 bd 6e 1c 39 3e 0d 82 93 be 05 7f 90 3e
       -0.059433326 0.18077251 -0.28810158 0.28221908
000140 a4 b5 61 bd 2f 5b 5e bf c1 85 7c 3e 35 a3 0e 3f
       -0.055104867 -0.86857885 0.24660398 0.55717784
000150 49 28 9c be cc a0 ce 3d 44 fc b9 bc d7 48 9b 3d
       -0.30499485 0.10089263 -0.022703297 0.075822525
000160 26 32 87 3f 49 45 65 3e 2a ef 50 be f6 bb 9f 3f
       1.0562179 0.22389711 -0.20403734 1.2479236
000170 b3 86 de bd 55 63 2e be 56 f4 85 3e a4 3c 13 bd
       -0.108655356 -0.1703008 0.26162976 -0.035946503
000180 90 43 79 bd 89 a5 a1 be 01 e1 16 be 7d 52 47 3e
       -0.06085545 -0.31571606 -0.1473427 0.1946506
000190 d7 b4 10 bf e5 ce f2 bd 01 18 ef 3e b6 60 80 3e
       -0.5652594 -0.11855868 0.46698 0.25073785
0001a0 40 cd f4 bc 89 48 d0 be 8e 28 8e bd 17 14 c0 bc
       -0.029883027 -0.4068034 -0.06941329 -0.02344708
0001b0 6b 8b 83 3e 20 eb 4f 3f ec 5d d3 bd 6d 6e ac 3e
       0.25692305 0.8121815 -0.103206486 0.33677998
0001c0 11 41 b4 3e aa 1f 20 3f 44 9e 36 3f 5b 4c 1b 3f
       0.35205892 0.62548316 0.71335244 0.60663384
0001d0 f2 27 ef be d2 f3 68 3f 0c 15 24 3e cb 03 84 3e
       -0.46710163 0.9099704 0.16023654 0.25784144
0001e0 5d 54 d9 be d0 8c 78 3e 83 2a 94 be fb 86 50 3e
       -0.42447177 0.24272466 -0.28938684 0.20363991
0001f0 50 0a 38 be fd f9 1a be b5 68 3b 3d 1e d2 80 be
       -0.17972684 -0.15134425 0.045754153 -0.25160307
000200 23 07 8b 3e e3 e5 19 bf de 3e 60 bd 6d 6c 2d be
       0.27153882 -0.60116404 -0.054747455 -0.16935892
000210 a5 56 8d be 36 fe 54 3e a5 e9 1a 3f 15 a3 a6 be
       -0.27605167 0.20800099 0.60512763 -0.32546297
000220 37 2c 76 bd 5c 59 31 3d 4b fe 12 3f 04 5a b1 3d
       -0.06010076 0.04329811 0.5741927 0.08659747
000230 b2 56 d0 be fa 6d b5 bc da 70 1c 3e ba a1 89 3e
       -0.40691143 -0.022147167 0.15277424 0.268812
000240 23 b2 71 be 11 9c 8e 3e ee 70 a6 3e 72 f6 8a 3e
       -0.2360311 0.27853444 0.32508034 0.27141148
000250 5e e3 91 3e 2d c7 05 3f ed ab ab 3d 41 14 38 3e
       0.2849378 0.52257043 0.083824016 0.17976476
000260 52 f1 91 3d 2a 4a fa bd 98 e1 4c 3d 9b 92 5f 3e
       0.07126106 -0.12221177 0.05001983 0.2183327
000270 3d 08 bd 3d 03 85 81 3e bb 74 7c bf f1 a9 a5 3d
       0.09230087 0.25296792 -0.98615617 0.080890544
000280 6a 61 ce bc 9e 0f da 3e 5e 51 05 bf e7 ed 57 3f
       -0.025192935 0.4259004 -0.5207728 0.84347385
000290 52 42 92 be b3 57 e7 be 11 be 2c 39 dc f2 3e be
       -0.28566223 -0.45184097 0.00016474003 -0.18647331
0002a0 a7 0b 47 3f e2 8a 24 3f 2a 2b 3c 3f 18 a8 23 be
       0.77752155 0.6427442 0.73503363 -0.15982091
0002b0 15 0b a0 3e ef 16 88 3e 5c a1 f1 3e 70 5c 6d 3e
       0.31258455 0.26579997 0.4719342 0.23179793
0002c0 4f 0d f3 be f5 52 43 bf 72 cf 11 3f b4 f6 13 bf
       -0.4747109 -0.7629846 0.5695716 -0.57798314
0002d0 aa 07 09 be b8 33 c2 3e b0 1c f1 bc bf bd 86 3e
       -0.1338183 0.37930083 -0.029432625 0.2631664
0002e0 b6 d0 0d 3f 88 81 59 bf 31 ab 3a 3d b7 1b 91 3d
       0.5539659 -0.84963274 0.045573417 0.07085364
0002f0 36 89 cd 3e bb fa f0 be cf bc d2 3d c8 85 17 be
       0.40143746 -0.47066292 0.10289919 -0.14797127
000300 87 7e c2 bd 91 9a db 3e a8 c4 56 3e 1b ce 9c be
       -0.094967894 0.42891362 0.20973456 -0.30625996
000310 65 fa 72 bf ed 4f 74 bd e6 a0 4d 3e 2a 55 2a 3f
       -0.9491332 -0.059646536 0.20080909 0.665362
000320 c8 c5 0c 3d a3 31 d2 be ee b3 70 be 00 50 21 3e
       0.034368306 -0.41053495 -0.23506138 0.15753174
000330 e8 56 cb 3d cf 35 95 3e 33 11 56 3f f5 3c 89 3e
       0.099286854 0.29142615 0.83619994 0.2680432
000340 05 76 17 bf ff 23 dd be 27 e4 ad bd a9 2e 76 3e
       -0.5916446 -0.43191525 -0.08490782 0.24041237
000350 b9 ef ec be 93 e4 08 3f 87 67 0a be b4 3b e6 3d
       -0.46276644 0.53473777 -0.13516055 0.11241856
000360 fa ac 17 bf b7 a4 e0 3e 27 a7 f7 be 81 05 84 3e
       -0.59248316 0.43875667 -0.48369715 0.2578545
000370 b2 30 f6 3c 31 9c dc be 8c 28 75 3e 86 74 b2 3d
       0.030052517 -0.43087915 0.23941249 0.08713631
000380 7e a7 64 3a 1a 28 ef 3e ca 8a 82 bc 24 4f 4a 3e
       0.0008722468 0.46710283 -0.01593532 0.19756752
000390 40 ad 9e be b4 e8 54 3f 8e 6c 6c 3f 12 83 68 3e
       -0.30991554 0.83167577 0.9235314 0.2270625
0003a0 e5 31 15 3e b2 6d 77 3d d6 8b 17 bf b4 89 77 3c
       0.14569815 0.060407348 -0.5919775 0.015108515
0003b0 f5 50 ba 3e 46 b1 57 3f d7 57 bc 3d bf ed 88 be
       0.3638989 0.8425487 0.091964416 -0.26743886
0003c0 6a ae 2a 3e fb e2 ff bd 4e ea b4 3d f0 1c f8 3e
       0.16668096 -0.12494465 0.088337526 0.48459578
0003d0 95 d3 0e bf 12 d9 8f be a6 d3 09 be 03 04 77 be
       -0.557916 -0.280953 -0.13459644 -0.24122624
0003e0 28 88 9a 3e 91 3c ee bd e6 8f 7a bd 75 25 5b 3e
       0.30182004 -0.11632646 -0.06117239 0.21401007
0003f0 22 2c 54 bd 15 54 75 bd fd e4 8d 3e 55 62 de be
       -0.0517999 -0.05989464 0.27713767 -0.43434396

fc3.bias f4 [4]
000000 6e 42 93 bc 6b f0 4f bd d5 ac 7b bd 59 55 6f bd
       -0.017976012 -0.05076639 -0.061444122 -0.058431003
