saved_data/critic_solved.pth (torch_old, 169893 bytes, 5 tensors)

fc1.weight f4 [256, 33]
00000000: 0b19 8b3e a846 b23e 066b 423d 7081 a2ba
00000010: 0127 1c3f 822a f03e 1f7c 843e c0c4 83be
00000020: bb43 373e 81c4 6dbd e1fd 473e 8a73 c33d
00000030: 7da3 4ebe 370e 83be 9331 3bbe e820 66be
00000040: 796f 91be 3fc8 903e 4983 353e 9441 d23e
00000050: 3c98 07be 75f1 adbe 0723 2e3e 72a9 e7be
00000060: f788 bfbe a45b d4bd a953 1b3c 7989 873f
00000070: bed6 d63e ac88 90bc bb07 8fbf 64ec 82bc
00000080: 4585 233f bd75 77be 2ffd 473f 0ebb 933e
00000090: 918c d8be 96b3 893d 6e7c 7b3e 87ae 29be
000000a0: 7281 3dbd 327b b53e 0e5c c2be bf94 c53e
000000b0: 3284 b73c 3bef 8c3e e11d 90bd 4b2d d43d
000000c0: d8bc 733e 3b6d acbe 7292 23be 04a0 bfbe
000000d0: 81db 393f 39c9 37bb 1709 fbbb 5d76 afbe
000000e0: 5fad 23be b617 9ebd 23ff 483e fe4c 8bbd
000000f0: 49dd a03f 977d b93d d455 d5bc 77be a1bf
00000100: 7025 c1bb b113 30bf 0855 573e 5921 d63e
00000110: 6472 703e ccf0 05bf 7810 883e d1ee a1be
00000120: 6b29 a7be 4e27 c7bd 1e3f 96be 3695 c23d
00000130: 23e4 e1bc 7d4d 2ebd b31c 0d3e 7710 d43e
00000140: 3ef5 3ebd 0276 a5be 8ecf 77be 9b47 69be
00000150: 4320 b53e 45fd 92be 3041 24be 6f46 eabe
00000160: 7fd8 54be 1f19 db3d 82ab 0d3e fb20 48bb
00000170: 56ec 01bf f58b bb3f 3839 cabe 3423 7ebd
00000180: ad35 b6bf da5b 3ebd fda6 313f 46ca 043f
00000190: 5c7d 353f 68a8 53bf 683f 2abe 0ec7 933d
000001a0: 9ffd adbe 9731 073d 619f cfbe 899c 6b3e
000001b0: 4cb0 c8be 7047 283e 686a bf3e ae89 e7bb
000001c0: 6b91 6dbd 4668 333f e3ef bcbe b86a c3bd
000001d0: db8a debe 19cb ca3e d1c8 15bf 7108 143e
000001e0: 593a 0bbd a2cb ab3e 5e77 b8bd 0694 283e
000001f0: 1807 d6bd 84d1 b8be 5d79 603f 80ce f23e
00000200: c85f 41bd 5dcd 5dbf 0082 6439 57a0 cdbe
00000210: 7633 13be 8be1 f2be 3feb ec3d 8467 8c3d
00000220: 215d da3b d543 b83e f815 453e 5917 b13e
00000230: 7185 863e 2e0c dabc f57a ccbd ce2c eebc
00000240: 793b 843e 5ca2 153f 2348 273f 4f7c 0f3f
00000250: 49a0 753e cc8d 493d ea2a b3bd 27f8 7e3d
00000260: c87d d2bd ebae 8c3c f184 693e 7224 063c
00000270: d56d 323e a995 5a3e 3acb b8be 3765 de3e
00000280: 5db2 e3be 5005 0abc d06e 04bf e0a0 213b
00000290: c338 913d 14ee 973e a13a 973d ec86 f23b
000002a0: fad8 333e cc77 b5be 7413 a63e 098f 8d3e
000002b0: 62a1 b3be a39a 19be 25bd 1abd 99ec b93d
000002c0: 28e3 803d 71e6 33bd d280 2abf c39a 14be
000002d0: 9ed9 fbbe 4faa 1e3f a19e b9be 6838 273f
000002e0: ba41 81be 6cf2 1cbb 0819 473c a974 693d
000002f0: 789f 01be 4019 dfbd 6e8f 10bb 359a e93e
00000300: 7277 493f a90e 083f f841 79bc c444 4ebf
00000310: f4e7 13bd 847f a63d f266 1bbf 4409 eb3d
00000320: aaad 033d 6cfb 07be d4e0 013d 25e8 2cbf
00000330: 5e89 e93d 687a adbe fc74 18bf c8bd 40be
00000340: 744e 7a3d 39bc 983b 6479 9cbc 3ef1 583f
00000350: 6713 0bbe 52bd cabd 32a4 dbbe 7346 94bd
00000360: 029b 6a3e f82b e33d 2679 3b3c 39c5 ddbd
00000370: a6a8 e13d 65d0 593e d338 5fbc 34c0 09be
00000380: 0e19 cfbe 3c90 483f 007d 7f3e 56ee 043d
00000390: 9ca7 48bf e4a5 d73c 01a1 9ebf 5ee3 d93b
000003a0: 09a3 33bd d6ba b73b db7e 6fbd e912 033d
000003b0: 2cd2 043f fb6b 07be 4051 eb3d 4031 57bd
000003c0: 2c10 3c3d 7f2e 65bc a060 d4b8 387c b53c
000003d0: d521 53bb 0566 54bc 2dc5 843c 37a4 40bd
000003e0: f5fd a9bc 5131 803d 12a1 b3bc f173 bbbb
000003f0: e082 833c bd41 b33b 6d1e 5e3c 6836 043a
0.27167544 0.3481953 0.047465347 -0.0012398195 0.60997015 0.4690743 0.25875947 -0.25736046
0.17896931 -0.05804873 0.19530441 0.09543522 -0.20179553 -0.25596783 -0.1828063 -0.2247349
-0.2840536 0.28277776 0.17725863 0.41065657 -0.13241667 -0.3397328 0.1700555 -0.45246464
-0.37409183 -0.103690416 0.009480395 1.0588828 0.4196071 -0.017643295 -1.1174234 -0.01598186
0.6387523 -0.24166007 0.781207 0.2885365 -0.42294744 0.067237064 0.24559185 -0.16570483
-0.046266027 0.35445553 -0.37960857 0.38590047 0.022401903 0.27526268 -0.07036949 0.103602014
0.23802507 -0.33677086 -0.15973833 -0.3742677 0.7260056 -0.0028043522 -0.0076609957 -0.34269992
-0.15984105 -0.07719366 0.19628577 -0.068017945 1.2567531 0.090571575 -0.026041903 -1.263625
-0.0058943555 -0.68780047 0.2102853 0.41822317 0.23481137 -0.5232055 0.26575065 -0.31627515
-0.32648787 -0.09724294 -0.2934503 0.09501116 -0.027574604 -0.042554367 0.13780479 0.41418812
-0.0466206 -0.32316595 -0.2420027 -0.22781222 0.35376176 -0.28708854 -0.16040492 -0.45756862
-0.20785712 0.10698151 0.13834956 -0.0030537236 -0.50751245 1.4652086 -0.3949678 -0.06204529
-1.423513 -0.046474315 0.6939543 0.51871145 0.7089441 -0.8267884 -0.1662575 0.07215701
-0.3398256 0.033006277 -0.40551284 0.23008932 -0.39197004 0.16433501 0.3738587 -0.0070659732
-0.05800001 0.70080984 -0.3690177 -0.09541839 -0.43465313 0.39608076 -0.58509547 0.14456345
-0.03399119 0.33553797 -0.090071425 0.16462716 -0.10450572 -0.36097348 0.87685186 0.47423172
-0.047210485 -0.86641484 0.00021792203 -0.40161392 -0.143751 -0.474377 0.11568307 0.068556815
0.006663934 0.35989252 0.19246662 0.34588125 0.26273683 -0.026617136 -0.0998439 -0.029074099
0.25826624 0.58450866 0.65344447 0.56049055 0.23986925 0.049207494 -0.087484196 0.062248375
-0.10277897 0.017173251 0.2280462 0.0081874 0.1742471 0.21346153 -0.3609255 0.43436596
-0.44472018 -0.008424118 -0.51731586 0.002466254 0.070909046 0.29673827 0.073842295 0.007401338
0.17563239 -0.3544296 0.32436717 0.2764819 -0.35084063 -0.15000395 -0.03777804 0.090783305
0.062933266 -0.043920938 -0.66602814 -0.14512162 -0.49189466 0.6197862 -0.36253837 0.65320444
-0.25245458 -0.0023948206 0.012151964 0.05699602 -0.12658489 -0.10893488 -0.0022058147 0.45625463
0.78697884 0.5314737 -0.015213482 -0.8057368 -0.03610988 0.081297904 -0.6070396 0.11476377
0.03214804 -0.13279504 0.031708553 -0.67541724 0.11403154 -0.3388245 -0.59553504 -0.18822396
0.061109975 0.0046611098 -0.019100852 0.84743106 -0.1358162 -0.09899391 -0.4289871 -0.072399996
0.22910693 0.11092371 0.011442458 -0.10828633 0.11018495 0.21270902 -0.013624388 -0.13452226
-0.40448803 0.78345084 0.24950027 0.032453857 -0.7838075 0.02632422 -1.2392884 0.0066494187
-0.043856654 0.0056069894 -0.05847059 0.032000456 0.51883197 -0.13224785 0.114901066 -0.052537203
0.04591386 -0.013988136 -0.000101269456 0.022153959 -0.003221621 -0.0129637765 0.016207302 -0.047031607
-0.020750979 0.06259406 -0.02192739 -0.0057206084 0.016053617 0.005470483 0.013557059 0.00050435076

fc1.bias f4 [256]
00000000: 999c 91bf 4163 a6bf af46 a6bf 6386 70bf
00000010: a2a0 c2be 1e8e 53bf d86b 7dbf 62de aebe
00000020: 94a6 50bf e5a5 aebf fee2 9fbf f7e6 65bf
00000030: 4749 85bf 0ceb 45bf a09c 86be d390 31bf
00000040: e8ff 8fbf 9b5a fbbe 7673 363d 4f7d 7abf
00000050: e39c 79bf 699c 53bf d86b 9dbe 4296 6fbf
00000060: 217e fbbf 0cb2 56bf ac40 59bf 83ae 8c3e
00000070: 2f6e 12bf 29e4 b4bf 32ea 83bb 1a3d 84bf
00000080: 1ebe 19bf d51b 52bf 7a48 7bbf c759 24bf
00000090: dca1 94bf 975c 93bf 3f36 84bf 56fe 16bf
000000a0: a644 a5bf 98bc 06bf cc21 89bf 0bd4 3cbe
000000b0: 7153 4bbf b3e6 94bf 0d63 2cbf 1cd7 2dbf
000000c0: 0084 72bf f515 febe a432 c8bf 5031 c7be
000000d0: 22ca 7ebf 4885 59bf 09b4 4fbf 6094 65bf
000000e0: da71 98bf 0dd0 afbf 3ae4 3fbf 1a1c 0cbf
000000f0: 7d76 c3bf 2080 9dbf fb5a acbf d4fe a5bf
00000100: 4432 48bf 863a 35bf 3410 99bf cc12 9dbf
00000110: 61ec 63bf 5b29 65bf 53bd ae3d 4189 a6bf
00000120: 8d7a 9cbf e077 3ebf c632 87bf 25de b3bf
00000130: 67ca 7cbe a2de b2bf e8a6 87bf f668 b6be
00000140: c64b 50bf 2043 9ebf 00e0 acbf cdd0 53bf
00000150: 9a4b f5be 5b83 3dbe 6e06 60bf 098f b4bf
00000160: ffc9 42bf 1a14 93bf 6b0e 0abf 3a3d 60bf
00000170: f5fc 53bf 3e5b d6bf 886d 55bf e649 c2be
00000180: 161b 3fbf 48cb 79bf 0603 c1be 711d 64bf
00000190: 9d32 5ebf 7be0 89bf 885d 9bbf 7dd9 51bf
000001a0: 07fe 36bf 7b4f 93bf 03e3 b1bf 2a54 b0bf
000001b0: 549e b6bf 5fb7 1ebf 24aa 77bf d6d1 4bbe
000001c0: 3452 f6bd ac96 a9bf fa6f 4dbf 2587 53bf
000001d0: 7dc1 85bf 2925 09bf 686c 3bbf 145c 93bf
000001e0: d53d e6be 91c9 a0bf 2e4c 6ebe 7720 70bf
000001f0: fa2e d4be ee76 64bf 6ac7 9cbf a621 36bf
00000200: b43c 36bf 5d17 a1bf a1e9 b7bf 0ae9 b7bf
00000210: 3df9 5cbf 7bb0 97bf a500 51bf 0a20 ea3e
00000220: 7010 83bf fa45 63bf 1f28 aabf 5c86 9cbf
00000230: d0b6 eabe dd00 afbe 1356 0cbf cd51 a3bf
00000240: 6b82 3cbf e128 2abf 0ade 6dbf c5d1 2fbf
00000250: 8de5 e9be 935c bbbf b54f babf 2297 bfbf
00000260: e273 38bf f269 69be 3cd7 8abf 0018 6dbf
00000270: a0e9 7cbf 92ed fb3e 97b9 92bf 1171 f9be
00000280: 2487 62be a818 08bf 44b4 98bf e5e8 76bf
00000290: 2d4e 6cbe 0772 3abf d6c2 1cbf 42a4 bdbe
000002a0: e6c9 6bbf f0d6 62be 4fcb 41bf cf65 0bbf
000002b0: f7b3 2fbf 4475 80bf 493d babf f283 afbf
000002c0: ba3c e7bf 61a1 14bf 49bb aebf 6b99 063f
000002d0: 7922 12bf 779a a4bf fb71 90bf 869d 743e
000002e0: 30e3 8abf cb43 79bf 83d3 733e 5c68 6ebf
000002f0: 79b6 43bf 3184 46bf e1cb b5bf 1db3 393e
00000300: 6e82 c5bf f340 66bf 3b00 34bf daaa 27bf
00000310: e952 0bbf 5a67 6fbf 1911 99bf 91c5 24bf
00000320: fdb8 283f 2b09 4fbf 193e 30bf 215b 9dbf
00000330: 1755 a1bf 3e3f babe cd7f 0bbf 7cbd 73bf
00000340: 9c67 b2bf 8be5 8ebf f328 20be 9b84 b6bf
00000350: 6a08 5dbf d930 bbbf b4f1 89bf 6c9c 87bf
00000360: 71d8 c2bf 77db e6be 4e4d 80bf a5c7 45bf
00000370: 1460 85bf 3ff3 01bf 35ad 31bf dad3 b8bf
00000380: bcee 49bf 8e05 82bf 6c82 a7bf ef3c 62bf
00000390: 35df a0bf 7241 a2bf 95e8 6fbf bd1c 81bf
000003a0: 20f1 a4bf 0709 7dbf be08 4b3e 569f 7fbf
000003b0: 3a89 20bf 3847 b6bf 58cf 3b3f 8b86 4bbf
000003c0: 4b50 e0bf 8555 95bf 48a1 88bf 7c65 bbbf
000003d0: 8a4d 693f 69b9 81bf fda7 52bf 9ddf 62be
000003e0: d959 97bf 8591 8fbf 84ec 98bf 011b babf
000003f0: aec4 29bf c484 ecbe 4313 63bf e2af 0dc0
-1.1375915 -1.299904 -1.2990321 -0.9395506 -0.38013178 -0.8263873 -0.9899268 -0.3415404
-0.8150418 -1.3644377 -1.2491148 -0.8980555 -1.0412987 -0.7731178 -0.2629137 -0.6936161
-1.1249971 -0.49092564 0.044543706 -0.97847456 -0.97505015 -0.8266054 -0.3074634 -0.9358865
-1.9647866 -0.8386543 -0.84864306 0.27476892 -0.57199377 -1.4132129 -0.004025721 -1.0331147
-0.6005572 -0.8207372 -0.98157465 -0.6419949 -1.1611896 -1.1512631 -1.0329055 -0.58981836
-1.2911575 -0.5263152 -1.0713439 -0.18440263 -0.79424196 -1.1632904 -0.6733864 -0.67906356
-0.94732666 -0.49626127 -1.5640454 -0.3890481 -0.9952718 -0.84968996 -0.81134087 -0.8967953
-1.1909745 -1.3735367 -0.7495762 -0.5473038 -1.5270535 -1.2304726 -1.3465265 -1.2968392
-0.782017 -0.70792425 -1.195807 -1.2271361 -0.8903256 -0.8951623 0.085322045 -1.3010637
-1.22249 -0.74401665 -1.056237 -1.4052168 -0.24686585 -1.3974192 -1.0597811 -0.35626954
-0.8136562 -1.2364235 -1.3505859 -0.8274048 -0.47909242 -0.1850714 -0.8750981 -1.4106151
-0.7608947 -1.149051 -0.5392825 -0.87593424 -0.82807857 -1.6746595 -0.83370256 -0.37947005
-0.74650705 -0.9757581 -0.3769762 -0.89107424 -0.8679598 -1.0771631 -1.2137918 -0.81972486
-0.71481365 -1.150863 -1.3897403 -1.3775685 -1.4267068 -0.6199855 -0.9674399 -0.19904265
-0.12027398 -1.3249106 -0.8024899 -0.8262809 -1.0449673 -0.53572327 -0.7321229 -1.1512475
-0.4496905 -1.2561513 -0.23271248 -0.9379954 -0.4144209 -0.8924397 -1.2248356 -0.71145093
-0.71186376 -1.2585255 -1.4368173 -1.4367993 -0.8631781 -1.1850733 -0.8164161 0.4572757
-1.0239391 -0.8877865 -1.3293494 -1.2228503 -0.458426 -0.34180346 -0.5481884 -1.2759339
-0.736365 -0.66468626 -0.9291693 -0.6867946 -0.45682946 -1.4637626 -1.4555575 -1.4967997
-0.72051823 -0.22794321 -1.0846934 -0.92614746 -0.98793983 0.4920469 -1.1462888 -0.48719075
-0.22121865 -0.5316262 -1.1930013 -0.9644912 -0.23076697 -0.7283024 -0.61234796 -0.3703938
-0.9210495 -0.22152305 -0.7570085 -0.5445222 -0.6863398 -1.0035787 -1.4549953 -1.3712142
-1.8065407 -0.58058745 -1.3650905 0.5257785 -0.5708385 -1.2859639 -1.1284784 0.23888215
-1.0850582 -0.9736907 0.23811154 -0.9312799 -0.76450306 -0.7754546 -1.4202844 0.18134733
-1.5430429 -0.89942855 -0.7031285 -0.65495074 -0.54423386 -0.93517077 -1.1958343 -0.6436396
0.6590727 -0.80873364 -0.68844754 -1.2293435 -1.2604092 -0.36376375 -0.54491884 -0.95211005
-1.3937869 -1.1163801 -0.15640621 -1.4259218 -0.86340964 -1.4624282 -1.0776887 -1.0594611
-1.5222303 -0.45089313 -1.0023592 -0.7725776 -1.0419946 -0.5076179 -0.6940492 -1.4439652
-0.78879905 -1.0157945 -1.3086677 -0.8837423 -1.2568117 -1.2676222 -0.93714267 -1.0086895
-1.2886086 -0.988419 0.19827554 -0.998525 -0.6270939 -1.4240484 0.73363256 -0.7950217
-1.7524503 -1.1666723 -1.0674219 -1.4640346 0.9113394 -1.0134708 -0.8228758 -0.22155614
-1.1824294 -1.1216284 -1.1947179 -1.4539491 -0.66315734 -0.46195042 -0.88701266 -2.21386

fc2.weight f4 [128, 260]
00000000: 4f1d a3be 0eac dd3d 0337 be3d 7e4d 01be
00000010: 7efa f23d 2192 57bd 638a bd3c ce02 c5be
00000020: bfb2 e63e 0f84 b63d 516c 213e 7296 733e
00000030: 822a 673e df44 1a3e e03c 323e 0290 20be
00000040: 47b7 69bc a92e 33be 534d 1bbe 5d44 3c3f
00000050: 1517 d63d 02ec 8dbe 2440 bc3e 214c 91bf
00000060: 41f5 12bf 2660 1ebf 3301 663e ff17 9b3e
00000070: c9d2 7b3e df5c 7f3e b0e3 753e ebab a1be
00000080: ac3b 513d f425 213e 0cc2 1ebe 7cee 2b3f
00000090: cbf2 f6be 7d93 2cbf 83fb a93d 401b dabe
000000a0: 7a99 68be 3f62 ccbd 2dbe 8a3e 1189 43be
000000b0: 226d b83d 150b 823d 9086 0b3e ff79 783f
000000c0: a6d0 f73d 6205 653d c9b4 a63c 9711 ebbd
000000d0: 422c 39bf c8cd 67be 909a 05be ba33 0f3c
000000e0: 9843 0fbe c653 0e3f f5e4 ef37 a65b ddbd
000000f0: 22b2 3bbd a7f0 003d 8e23 8b3e 6931 ca3d
00000100: 027c 12bb 12e4 a03c 3d6d 4dbd e5bb d6bd
00000110: aa0b 523e ab85 8d3f 84f3 abbd b428 293e
00000120: 39d5 3f3e 861e 913d eab0 373d e05d 263e
00000130: 06bf d4bc c3a9 64be ac57 17ba 17f5 eb3c
00000140: 4116 3d3e 3e3e ea3d 1fd6 84bd 97fd c8be
00000150: 1eb4 12be 18ff 5b3e 6563 b0bd f756 03be
00000160: ef46 0d3e 4633 49bc 9d1d f6be b61f 98bd
00000170: 5bc8 603d 3706 d63e 422f 21be f093 13be
00000180: d814 e33d 1d78 87be 7104 04be c357 9abc
00000190: a206 273c 0ade 5b3e 9c7f fbbc e378 ab3c
000001a0: 4139 b23c c477 cfbc 53f6 8fbe 1cb5 0bbe
000001b0: 4e85 17bf bbbc 57be 88a8 d9bd d3f9 3f3d
000001c0: 7d3a 413d 570f 78be eaa6 e8bd bc95 f73e
000001d0: 3caf 05be 677b b03e c91e c8be 0b5e d73e
000001e0: d9fd 87be 96f0 1ebf 4e37 23be 3a24 333e
000001f0: 08a5 69bf 99fa 83bd b00c ffbe 85ff 8fbd
00000200: beca 18be 7020 67bd d79a 903d 4232 503e
00000210: 9fbd ad3e 68a6 18bd 6091 a0bf 0db0 71be
00000220: 4f1c 78bd 68be 38bf 05e6 76bf a92f 86bd
00000230: 1208 21be ac1f 403f c2e1 15c0 c040 60bd
00000240: f2f3 37bd c92f f83e 3928 dc3e 2aec dd3d
00000250: 3039 86bf 2f6b 923c b44d a4bd 36ce 75bd
00000260: 3824 c63e 49a4 e73e 3d4f ebbe c3ed 533d
00000270: 56ca ec3e ef74 56bd 46ea 003d 000d 55be
00000280: 5c7c 6cbc 7528 adbd 15e4 2a3d 2c6b cabe
00000290: 9f3a dabf f90f c93e 3471 913d c503 a13e
000002a0: 92ab ddbc 39f0 343e 45b8 11be d116 8fbd
000002b0: 070b 203f d2c4 0a3d 11ee 453e 7581 6bbe
000002c0: b189 25bf 4a3d f53e 8fde 77bd 3845 523e
000002d0: cf1a 1ac0 eda2 d23e fd1c 2cbe e170 e73d
000002e0: 2ce9 cabe e22d d8be da6e bebc 128e 833c
000002f0: 5648 bcbd bc3b ab3c 6e50 8d3d b102 593e
00000300: ac6c 073d 4719 8bbd b98e 2d3e 9a2c d23d
00000310: 82f7 9e3d 29e7 57be 1b88 f9bd f1cb 643d
00000320: 6897 34bd 8fb5 9dbe 989f 35bf d57e d83e
00000330: 8a6f 163f 3892 71bf d1ac 6bbf de12 42bd
00000340: 27a3 063e 1671 7abe d1f0 c13c e55c bcbe
00000350: 5a8a 12be 7857 71be 1451 cabc 9304 67be
00000360: 3eea c0bd 6bf0 50be 8516 47be 7705 c0bc
00000370: d55b e13e 1471 6cbe 7557 4b3b 8282 b13e
00000380: d270 9fbe 55dd 163e 6aa9 c33e 9f8b 12be
00000390: bb3e 2fbd 8c18 d3be 92e0 683c fae5 40bd
000003a0: eb93 1abf 0b92 603e 3835 263d 660c 483e
000003b0: 9506 6fbc 308e 313f 4e4b e2be 4ab3 913e
000003c0: 66df e1be dc40 d9bd 00a1 bfbd c0e6 b83d
000003d0: 1978 993e e861 4c3e e41c 743e d719 753c
000003e0: d39c 193e 7244 2abf cc28 cbbe 1628 383f
000003f0: 49f3 06bf 490c 21be 2334 c3be ffbd fd3d
-0.31858298 0.108238325 0.092878364 -0.12627217 0.11864184 -0.052629594 0.023137277 -0.38478702
0.45058247 0.08911907 0.15763976 0.23787859 0.22574809 0.15065335 0.17406034 -0.15679935
-0.014264888 -0.17498268 -0.15166216 0.73541814 0.10453621 -0.27719122 0.36767685 -1.1351358
-0.5740548 -0.6186546 0.22461395 0.30291745 0.24592127 0.24937771 0.24012637 -0.31576476
0.0510823 0.15737134 -0.1550371 0.67160773 -0.4823211 -0.6741255 0.08299925 -0.42598915
-0.22714797 -0.099796765 0.27098218 -0.19095255 0.090051904 0.0634977 0.1362555 0.9706115
0.121003434 0.055913337 0.020349877 -0.11477964 -0.7233316 -0.22637093 -0.13047242 0.00874036
-0.13990629 0.5559658 2.8597637e-05 -0.10808496 -0.045824178 0.031479504 0.27175564 0.098727055
-0.0022351746 0.019640002 -0.050153006 -0.10485057 0.20512262 1.1056417 -0.08396056 0.16519433
0.18733682 0.070859 0.044846453 0.16246748 -0.025969993 -0.22330384 -0.0005773257 0.028803391
0.1846552 0.11437653 -0.06486153 -0.39255974 -0.14326522 0.2148403 -0.08612708 -0.12826143
0.1379659 -0.012280291 -0.48069468 -0.074279234 0.054878574 0.41801617 -0.15740684 -0.14411902
0.1108796 -0.26458827 -0.1289232 -0.018840676 0.0101944525 0.2147142 -0.030700497 0.020931667
0.021755816 -0.025325663 -0.28117618 -0.13643306 -0.5918778 -0.21068089 -0.10627848 0.04686911
0.04717492 -0.24224602 -0.11359961 0.48356426 -0.13055128 0.3446915 -0.39085987 0.42063937
-0.26560858 -0.62085855 -0.15939066 0.17494288 -0.9126744 -0.06444282 -0.49814367 -0.07031158
-0.1492109 -0.05642742 0.07060783 0.20331672 0.33933732 -0.037268072 -1.2544365 -0.23602314
-0.060573872 -0.72165537 -0.9644473 -0.06552059 -0.15725735 0.7504833 -2.3419042 -0.05474925
-0.04491038 0.48473957 0.42999437 0.1083606 -1.0486202 0.017873375 -0.08022633 -0.06001111
0.38699508 0.45242527 -0.45958892 0.05174042 0.4624812 -0.05235761 0.03147342 -0.2080574
-0.014433946 -0.08454982 0.041721422 -0.3953489 -1.704914 0.3927 0.0710167 0.31448188
-0.02705935 0.17669763 -0.1423045 -0.06986774 0.62516826 0.03387911 0.19329096 -0.22998603
-0.64663225 0.47898322 -0.060514983 0.20534217 -2.4078863 0.41139928 -0.16807933 0.11300827
-0.3963102 -0.42222506 -0.023246218 0.016058955 -0.091934845 0.020902507 0.06900106 0.21192433
0.033062622 -0.06791931 0.16948976 0.10262413 0.07762052 -0.21084274 -0.12184163 0.055858556
-0.044089705 -0.3080258 -0.70946646 0.42284265 0.58763945 -0.9436374 -0.9206057 -0.047381274
0.13148175 -0.24457201 0.0236744 -0.36789623 -0.1431059 -0.23568523 -0.024696864 -0.22560339
-0.09419678 -0.20404212 -0.19442184 -0.023440106 0.44015375 -0.23090011 0.003102747 0.34669882
-0.31140763 0.14732869 0.3821519 -0.14311074 -0.042784434 -0.41229665 0.014213698 -0.047094323
-0.60381955 0.21930711 0.040578097 0.1953598 -0.014588972 0.69357586 -0.44198078 0.284571
-0.44115752 -0.10608074 -0.0935688 0.09028387 0.2997444 0.19959223 0.23839146 0.014959774
0.1500123 -0.6651069 -0.39679563 0.71936166 -0.52714974 -0.15727343 -0.38125715 0.123897545

fc2.bias f4 [128]
00000000: 19db 753f 8429 31be 4e6a 85bd 72e0 0abe
00000010: abab 463f 35bf a5bc cd0c adbd 52c7 88bd
00000020: 8f38 10bd 48e3 90bd 69ed 61bd 1114 553f
00000030: 9d15 ffbe 198d 7ebd 50a1 c9bd f455 663f
00000040: b0c6 0abd c0b8 8dbd 6430 a6bd f5a7 01be
00000050: 3760 01be a320 41bd 5584 37be ff60 b4bd
00000060: 7013 bfbd 1376 2bbe 5701 e6bd 4e6b e9bd
00000070: 9a20 debd 89cd 5ebd 3b69 14bd 7d9c b1bd
00000080: 60c9 34be efe4 1abe 38eb 843f 42bc c83f
00000090: a879 a3bd f563 d9bc feb2 a2bd 9c18 0fbe
000000a0: dfe2 6bbd 1e26 b8bd 06e9 cbbd b108 a03f
000000b0: 485f a5bc 6f1d 09be d8cf 723f 34ce 20bd
000000c0: 8b50 8bbd 92eb 80bd f3cf fcbc a417 c23f
000000d0: 23fe adbd 67ec bfbd 89d4 acbd 498e 27bd
000000e0: f310 8e3f f8b4 9d3f c84b 4cbd 61b2 52bf
000000f0: 9f81 4fbd 2c07 58bd 2e07 70bc 4ed9 f1bd
00000100: 8909 d7bd cbc2 c1bc 3c4a 33bf 468c 8dbd
00000110: ca19 e2bd 30ab f9bd 47d5 94bb c083 4ebd
00000120: 087b afbd 0774 18be 91c7 7bbd d79f c3bd
00000130: 0b17 2abc f9aa dfbd 1087 06bd 606f b6bd
00000140: b7fd 06be e1a6 a4bd f1cc aebd bd7c d2bd
00000150: 9ec8 96bc 1031 bdbd ade2 a23f bc13 11be
00000160: d316 4a3b 0fed 253f 9377 debd 4e5a b7be
00000170: f844 a2bd 6298 00be 6a6a 6fbd 829b 2abc
00000180: fc5b dabd 4814 8f3f b305 8bbe e4ce bbbd
00000190: d071 e4bd 8120 8fbd d062 cebd b401 78bd
000001a0: 3626 0fbd dbe4 0ebd 10e3 3cbe d61c 89bd
000001b0: eb75 66bd 816e c93f 5285 f1bc fe2d c7bd
000001c0: a7d0 81bd e392 83bd b119 7ebd f7cd 6d3b
000001d0: 0e6d 2ebd 907b e2bd 6b47 d3bd 25e8 ab3f
000001e0: 11ab 43bf 95bb afbd c3ca 5cbc 74e7 4fbe
000001f0: 5dbe 18bd da53 0bbf f10c d6bb 8c6e 0bbd
0.9603744 -0.17300993 -0.06514417 -0.13562182 0.77605695 -0.020232776 -0.08449707 -0.06678642
-0.03521019 -0.070746005 -0.055158053 0.83233744 -0.49821177 -0.06214628 -0.09845221 0.89974904
-0.03388089 -0.06920004 -0.081146985 -0.12661727 -0.1263436 -0.047150265 -0.17921574 -0.08807563
-0.09329879 -0.1674426 -0.11230724 -0.1139742 -0.10846062 -0.054395232 -0.036233168 -0.08672426
-0.17654943 -0.15126394 1.0384283 1.5682452 -0.079821885 -0.026536921 -0.07944296 -0.13974231
-0.057589408 -0.08991645 -0.09956555 1.2502652 -0.020187035 -0.13390134 0.94848394 -0.03925915
-0.06802472 -0.062949315 -0.030860877 1.5163465 -0.08495738 -0.09371262 -0.08438975 -0.040907178
1.1098922 1.2320852 -0.049876958 -0.82303435 -0.050660726 -0.052741215 -0.014650149 -0.11809026
-0.104998656 -0.023652455 -0.7003515 -0.06911521 -0.11040075 -0.121908545 -0.004542026 -0.050418615
-0.08568388 -0.14888011 -0.06146962 -0.095519714 -0.01038147 -0.10921282 -0.03284365 -0.08907962
-0.13182722 -0.08039642 -0.08535183 -0.10277698 -0.018406209 -0.092378736 1.2725426 -0.14167684
0.0030836358 0.6481485 -0.10862651 -0.35811085 -0.07923311 -0.1255813 -0.058451094 -0.0104130525
-0.10662076 1.1178064 -0.27152786 -0.09170321 -0.111545205 -0.069886215 -0.10077441 -0.0605485
-0.03494855 -0.034886222 -0.18445992 -0.06694953 -0.0562648 1.5736848 -0.029482517 -0.09725569
-0.063386254 -0.06424501 -0.06203622 0.0036286095 -0.04258447 -0.11058724 -0.10316356 1.343022
-0.764329 -0.085807 -0.013476077 -0.20303136 -0.03729092 -0.5442482 -0.0065323045 -0.034040973

fc3.weight f4 [1, 128]
00000000: e5c1 5d3d 6415 e63d e1be 3c3d 8c0e 3b3b
00000010: 4a09 4c3c 530b 6dbb c589 7fbc 791d 4ebc
00000020: c996 4bbc 6d40 1bbb de11 dd3c d2c0 233c
00000030: 5541 10bc 8056 a53a 6dee 7b3c 74c2 663d
00000040: edbc f43c db56 eebc a654 dcbc 0a6c 8c3c
00000050: f072 7d3c d91a 653c 5f6e 1f3c 0fa6 c93b
00000060: b8fb 033c c413 c13b d6f2 993c ebd9 4ebc
00000070: 39c1 00ba 54ce 03bc 03b3 793c 37a8 333b
00000080: 84e9 c03c 45c2 3cbb 67d5 cb3c 555c e73c
00000090: aa47 933c 234e 823d 0aee 7cbb 2274 aa3c
000000a0: af2f 2dbb 7747 bc3b 02d1 05bc 6350 8e3d
000000b0: 76bb e2bc 17ee ac3c 382e 873c aa93 86bb
000000c0: 5480 a13b d3db 4fba d669 943c aab6 723d
000000d0: ba42 64bc d6f3 b1ba b0e9 9fbb de40 25bc
000000e0: a730 843d 41f7 463d 532f 8a3b a217 9dbd
000000f0: 9f0c b239 3f08 d83b a5ca 023b 8328 ecba
00000100: dc6a 653c 384e a63c 9f2d c5bb bcce c2bb
00000110: 4eb9 86bc de2d e6bb 39f1 e6bc a3cb 363c
00000120: a610 11bd 9661 72ba efec 0f3c dca6 a6bb
00000130: 8ff4 6a3c 5c7d 993c a83e 61bd 9778 c5bc
00000140: d5d3 afbc 5a16 7e3c a1c3 c03b 1269 13bc
00000150: 0926 513b be73 c3bb 75d8 263d 772e 963c
00000160: 23cc 473b 3b0a 313c 1b21 92bc 20aa c0bc
00000170: 6c31 13bb b204 11bc 6325 24bc 0795 8b3c
00000180: 81c0 1ebb 20ef 473d ea17 43bc 68c1 8bbc
00000190: 0ae5 403c 44e2 51bb 8fbb b93b 4dba f8bb
000001a0: 657b a83c f5a9 ed3c 66b6 ab3c 4360 dabc
000001b0: aff2 c23c 8cdb 003d e47c a5bc 9210 7bbc
000001c0: dccf e8bc 5d92 ecbc b911 943b c1d1 c73c
000001d0: eb42 63bc 760c 5e3c 892c ea3c 0798 363d
000001e0: 6f3a 64bc ab96 4a3c 2819 333a 2127 84bc
000001f0: ee2d d53c 124a 11bc b4a2 8f3d 12fa bcbb
0.05413999 0.11234549 0.046080474 0.0028542606 0.012453387 -0.003617008 -0.015596812 -0.012580269
-0.012426087 -0.0023689524 0.026986059 0.009994702 -0.008804639 0.001261428 0.015376669 0.05633779
0.029875243 -0.02909415 -0.026895832 0.01714136 0.015469298 0.013983452 0.009730904 0.006153829
0.00805562 0.005892249 0.018792551 -0.012625198 -0.0004911605 -0.008044798 0.015240434 0.0027413496
0.023548849 -0.0028802317 0.024882032 0.02824227 0.017978508 0.0636256 -0.003859403 0.02080733
-0.0026426127 0.005745824 -0.008167507 0.06948926 -0.027677279 0.021109624 0.016501531 -0.0041069584
0.004928628 -0.00079291797 0.018116873 0.059256233 -0.0139319245 -0.0013576697 -0.0048801526 -0.010086266
0.06454592 0.048575643 0.0042170673 -0.07670523 0.0003396021 0.00659278 0.0019957211 -0.0018017445
0.014002528 0.02030097 -0.0060174013 -0.005945055 -0.016445782 -0.0070245108 -0.028191196 0.011156949
-0.035416268 -0.0009246109 0.008784517 -0.005085809 0.014340534 0.018736534 -0.054991394 -0.024105353
-0.021463314 0.015508259 0.005882696 -0.008997219 0.003191354 -0.0059647253 0.040733773 0.018332703
0.0030486665 0.010805662 -0.017838052 -0.023518622 -0.0022459878 -0.008851217 -0.010018679 0.017038835
-0.0024223628 0.04881203 -0.011907557 -0.017059997 0.011773357 -0.0032025734 0.0056681107 -0.007590568
0.020566652 0.029011706 0.020960998 -0.02665723 0.023797361 0.031459376 -0.020201154 -0.015323775
-0.028419428 -0.028878385 0.0045187143 0.02439201 -0.013870935 0.013552776 0.02858569 0.04457858
-0.013929947 0.012365024 0.00068320567 -0.01613194 0.026022878 -0.008867757 0.07013455 -0.0057671154
